framework/pytorch/第三章：训练数据的处理/structdata_model/save_model/net_parameter.pkl (torch, 4807 bytes, 5 tensors)

linear1.weight f4 [20, 15]
0	0xbd2398bc	-0.03994058
1	0xbe839336	-0.2569825
2	0x3eb6de6e	0.35716575
3	0xbef8b4a0	-0.48575306
4	0x3dc21529	0.09476692
5	0xbe4e6d67	-0.20158921
6	0x3ecedace	0.4040131
7	0x3e6aee7a	0.22942534
8	0xbe14d599	-0.14534606
9	0xbd1856df	-0.03719222
10	0x3e9b0b22	0.3028193
11	0xbe8cac4b	-0.274752
12	0x3d41d9ed	0.04732697
13	0x3ecc8562	0.39945513
14	0xbe6b5512	-0.2298167
15	0xbe581e21	-0.21105243
16	0xbe143a6e	-0.14475414
17	0xbdb98417	-0.09058397
18	0xbe370577	-0.17873178
19	0x3ebb1877	0.36542103
20	0x3d867994	0.06566158
21	0xbe6ab378	-0.22920024
22	0x3e942760	0.2893629
23	0x3de5d177	0.11221593
24	0xbda61551	-0.081095345
25	0xb9ee2e38	-0.00045429333
26	0xbda6fe00	-0.081539154
27	0xbdbaf964	-0.09129599
28	0x3de141d1	0.109988816
29	0xbdefeca0	-0.117150545
30	0x3d6dd9da	0.058069088
31	0xbe09407f	-0.1340351
32	0x3c13ff40	0.009033024
33	0x3e7a8ace	0.24467012
34	0xbe2a71c4	-0.1664496
35	0xbe1578bc	-0.14596838
36	0xbdfba920	-0.122881174
37	0x3da1841c	0.07886526
38	0x3e6d6c8a	0.23185936
39	0xbd89ef6c	-0.06735119
40	0xbe41584a	-0.18881336
41	0x3d1e9860	0.038719535
42	0x3d816c20	0.06319451
43	0x3d9f54db	0.07779857
44	0xbe33f088	-0.17572224
45	0x3e57c539	0.21071328
46	0x3eaff426	0.34365958
47	0x3e6bf8f6	0.2304419
48	0xbe557146	-0.20843992
49	0x3ef76429	0.48318604
50	0xbdd4b922	-0.10386874
51	0x3dfd6767	0.12373238
52	0x3d0c9f88	0.03433183
53	0xbe078fae	-0.13238403
54	0xbe630469	-0.22169651
55	0x3edd2fda	0.4320057
56	0x3e27588b	0.1634237
57	0x3c001405	0.007817273
58	0x3e88e459	0.26736715
59	0xbe2df9dd	-0.16989847
60	0x3ec60859	0.38678244
61	0x3ee8ea87	0.4549143
62	0xbed7f77b	-0.42181
63	0x3ef9c6d5	0.4878451
64	0xbe5e5df3	-0.21715526
65	0x3e5d71c5	0.21625431
66	0xbe5b35d9	-0.2140726
67	0xbe11cac0	-0.14237499
68	0xbe173dc3	-0.14769654
69	0x3e5307b8	0.20608413
70	0xbeb9c35a	-0.36281854
71	0x3e62b667	0.22139893
72	0x3e4de80d	0.20108052
73	0xbd53ff51	-0.05175716
74	0x3e286968	0.1644646
75	0x3e1a47cd	0.15066452
76	0xbe96bef1	-0.29442552
77	0x3dc45a94	0.09587589
78	0xbf149caa	-0.5805155
79	0x3f1b2999	0.6061035
80	0x3a940c28	0.0011295127
81	0x3dc2f9c2	0.09520294
82	0x3efedb4b	0.49776682
83	0x3ddf583c	0.10905501
84	0x3d6ceda7	0.05784383
85	0x3ec50e43	0.38487443
86	0xbe5f4301	-0.21802904
87	0x3d0038ad	0.03130405
88	0x3e12e479	0.14344968
89	0x3dbcf9b0	0.092273116
90	0x3e803c4d	0.25046006
91	0xbebea82d	-0.37237683
92	0x3ea32920	0.31867313
93	0xbe49f5f6	-0.19722733
94	0x3ef24288	0.47316384
95	0xbe054344	-0.13013941
96	0x3e0a1cfb	0.13487618
97	0x3e806962	0.250804
98	0x3e5f3759	0.21798457
99	0x3c5e1c99	0.013556623
100	0x3e293f0b	0.16527955
101	0x3d122dd6	0.035688244
102	0xbe474c9d	-0.1946282
103	0x3e873173	0.26404914
104	0xbe5e43c0	-0.21705532
105	0xbdb2d30d	-0.08731661
106	0xbd96167e	-0.07328509
107	0x3edb425e	0.42824072
108	0xbee21d96	-0.44163197
109	0x3eba9027	0.36438105
110	0xbe458d3a	-0.19292155
111	0x3e762dcc	0.24040908
112	0x3e2f1527	0.17097913
113	0x3c75ab27	0.014994419
114	0x3e46d91f	0.19418763
115	0x3e1ad7f9	0.1512145
116	0xbe87e3df	-0.2654104
117	0xbe6d9f49	-0.23205294
118	0x3eab61eb	0.33473143
119	0x3e3c64e7	0.18397866
120	0x3e3c2d3c	0.1837663
121	0x3defa0f7	0.117006235
122	0xba2aa410	-0.00065094326
123	0x3f12e9d9	0.57388073
124	0xbecdea94	-0.4021803
125	0xbdd8456b	-0.105601154
126	0xbdfcbe55	-0.123409905
127	0xbe88d1b3	-0.26722488
128	0x3e8b95fb	0.27262864
129	0x3db90195	0.09033505
130	0xbdddfce1	-0.108392484
131	0x3e216f89	0.15765204
132	0x3e936ac1	0.28792384
133	0x3dc94e24	0.09829357
134	0x3d873027	0.06600981
135	0x3d8c5ce6	0.068536565
136	0x3e911b88	0.28341317
137	0xbcf51f8a	-0.029922266
138	0x3e89284a	0.2678855
139	0xbf13cce6	-0.57734525
140	0x3e5cb55a	0.21553555
141	0xbeb0f5f6	-0.34562653
142	0xbeb4ec16	-0.3533637
143	0xbdd02f97	-0.10165327
144	0x3de4676e	0.1115254
145	0x3d46317d	0.04838704
146	0x3e880ba1	0.26571372
147	0x3ea92472	0.33035618
148	0xbe1547b1	-0.1457813
149	0xbbe3854f	-0.006943382
150	0x3d9ff138	0.07809681
151	0xbe8f3ba7	-0.279752
152	0x3dbb725a	0.0915267
153	0xbe0f1950	-0.139745
154	0x3e818797	0.2529876
155	0x3e08988f	0.13339446
156	0x3ed27897	0.41107628
157	0xbd9b549c	-0.07584497
158	0xbd8ceed1	-0.06881488
159	0xbde21f73	-0.11041155
160	0x3e80a711	0.25127462
161	0xbd7a531a	-0.061114408
162	0xbd830f2a	-0.06399377
163	0x3e32aa06	0.17447671
164	0xbe239e8d	-0.15978451
165	0xbca46bcc	-0.020070933
166	0xbedca8d8	-0.43097568
167	0x3dbbbeb1	0.09167231
168	0xbeffe5c9	-0.4998
169	0x3ebf0582	0.3730889
170	0x3d2aeed1	0.04173166
171	0x3d33924e	0.0438407
172	0x3e978e44	0.29600728
173	0xbe4b594c	-0.19858283
174	0x3c23de2c	0.0100017
175	0x3dff4e09	0.12466056
176	0xbcb572f2	-0.022149537
177	0xbdf32959	-0.11873121
178	0x3e089cc3	0.1334105
179	0xbe3fb800	-0.18722534
180	0x3c841483	0.016123062
181	0x3d42ef9e	0.047591798
182	0x3ea04916	0.3130576
183	0xbf04f96f	-0.51943105
184	0x3ea94740	0.33062172
185	0x3e336c44	0.17521769
186	0x3e196a92	0.1498206
187	0x3e2eb670	0.17061782
188	0x3da7e816	0.08198564
189	0xbc6bd7db	-0.014394726
190	0x3e84178e	0.2579922
191	0xbe8814d4	-0.2657839
192	0x3e453668	0.19259036
193	0x3e8b2bbc	0.27181804
194	0xbe2c9114	-0.16852218
195	0xbdbd712f	-0.09250104
196	0x3f03ed6d	0.5153416
197	0x3d82850d	0.06373034
198	0x3d31f3b4	0.043445304
199	0xbe70d1aa	-0.2351748
200	0xbe3743f1	-0.17897011
201	0xbedbe4ce	-0.42948002
202	0xbe335274	-0.17511922
203	0x3e9029f4	0.28157008
204	0x3e446fa8	0.19183218
205	0x3dd0fc32	0.102043524
206	0x3d7b7458	0.06139025
207	0x3d7acdbf	0.06123137
208	0xbe8d3544	-0.275797
209	0xbd1115d7	-0.03542122
210	0xbe07d417	-0.132645
211	0xbea160da	-0.31519204
212	0x3c5d6a9e	0.013514189
213	0x3e7fdd6a	0.24986807
214	0xbd9a84e8	-0.07544881
215	0x3e241320	0.1602292
216	0xbe77359f	-0.24141549
217	0xbe2b1c66	-0.16710052
218	0x3e45c08c	0.19311732
219	0xbeae05b0	-0.33988714
220	0x3cd14c1f	0.025548993
221	0x3dd5444d	0.10413418
222	0xbe7fabdd	-0.24967904
223	0x3c20b440	0.0098086
224	0xbc9b7348	-0.018975869
225	0x3ead9bfe	0.33908075
226	0x3eaa527f	0.33266065
227	0x3d83cfaa	0.06436093
228	0xbe9bd5b7	-0.3043649
229	0x3f04024a	0.5156599
230	0xbded7f49	-0.11596543
231	0x3eeb61e1	0.45973113
232	0xbe8d75d1	-0.2762895
233	0xbeb4cecf	-0.35314032
234	0xbdb68a6b	-0.0891312
235	0x3e34a8b4	0.1764248
236	0x3e87dafe	0.26534265
237	0xbe5bd4eb	-0.2146794
238	0x3f0bf34f	0.54668134
239	0xbd83786c	-0.06419453
240	0x3e8bae66	0.27281493
241	0x3d2f901a	0.042862035
242	0xbce363d5	-0.027757565
243	0x3ed84691	0.42241338
244	0xbe2f90f4	-0.17145139
245	0x3d687a9c	0.056757554
246	0xbda7deef	-0.08196818
247	0xbea613eb	-0.3243707
248	0xbdd5e16e	-0.10443388
249	0x3dd2c540	0.10291529
250	0xbe9d1403	-0.3067933
251	0x3e2867dc	0.16445869
252	0x3e142823	0.14468436
253	0xbdb5abf6	-0.088706896
254	0x3e06b1cc	0.13153762
255	0xbcca18d4	-0.024670042

linear1.bias f4 [20]
0	0x3e979130	0.29602957
1	0xbe5a3e42	-0.21312812
2	0xbde5c04e	-0.1121832
3	0x3ed5509f	0.41663072
4	0xbe98bc0a	-0.29830962
5	0x3e86d351	0.26333097
6	0x3c8d6045	0.017257819
7	0x3db01872	0.085984126
8	0x3e8db688	0.27678323
9	0x3c3e6099	0.01161971
10	0xbd6c60bd	-0.057709444
11	0x3e1a2307	0.15052424
12	0x3b09ca72	0.0021025208
13	0xbdf7259d	-0.12067721
14	0xbd842385	-0.06452087
15	0x3efb9cc7	0.4914305
16	0xbd1c0b10	-0.038096488
17	0xbc66815c	-0.014068928
18	0x3e5291fe	0.20563504
19	0x3e6a6755	0.2289098

linear2.weight f4 [15, 20]
0	0xbd4ca139	-0.04995844
1	0x3e261af1	0.16221215
2	0x3e4fac7a	0.20280638
3	0xbe20be36	-0.1569756
4	0x3e12d5b2	0.14339331
5	0xbe1e8875	-0.15481742
6	0xbd800c38	-0.062523305
7	0xbe3bd46e	-0.18342754
8	0xbe12efab	-0.14349239
9	0xbe85cad0	-0.26131296
10	0x3e2ffaf7	0.17185579
11	0xbde1fb55	-0.11034266
12	0x3d6a517e	0.057206623
13	0x3e2cca36	0.16874012
14	0x3e004aa0	0.12528467
15	0x3cd3d8e3	0.025860256
16	0xbe813109	-0.25232723
17	0xbdfc6d22	-0.12325503
18	0xbd4b6384	-0.049655452
19	0x3dfbe59d	0.12299655
20	0xbdb9ed14	-0.09078422
21	0xbcbe9350	-0.023263603
22	0xbdba9446	-0.09110312
23	0xbe5e96e8	-0.21737254
24	0xbe0a8be7	-0.13529931
25	0x3d924edc	0.071439475
26	0xbe092673	-0.13393573
27	0xbe6a44fb	-0.22877876
28	0xbc582484	-0.0131923
29	0xbe328704	-0.17434317
30	0xbdd73110	-0.10507405
31	0x3d42a78e	0.047523074
32	0xbdb1c97e	-0.0868101
33	0x3d3f83f8	0.046756715
34	0x3a91ff80	0.0011138767
35	0xbdef2da3	-0.116786264
36	0xbda7b8c9	-0.08189542
37	0xbbc6e420	-0.006069675
38	0xbe8a04b0	-0.269567
39	0x3e1446e2	0.14480165
40	0xbe18ee5f	-0.14934681
41	0xbe013c26	-0.12620601
42	0x3dcd53bc	0.10025737
43	0xbe75efec	-0.24017304
44	0xbd455c18	-0.04818353
45	0xbe5c0266	-0.2148529
46	0xbe81ffa9	-0.25390366
47	0xbdd1404d	-0.102173425
48	0x3e4a57aa	0.19760004
49	0x3ccb9930	0.024853319
50	0xbe8238d3	-0.25433978
51	0xbcf02017	-0.029312177
52	0xbe5035b9	-0.20332994
53	0xbcc8b508	-0.024500385
54	0x3cf38370	0.02972576
55	0x3cdf89b9	0.027287351
56	0xbe6a3b0e	-0.2287409
57	0xbe3c2395	-0.18372948
58	0xbd8b642a	-0.06806214
59	0xbdac283c	-0.084061116
60	0x3ea3164c	0.3185295
61	0x3d49b9f3	0.0492496
62	0xbd6fef5a	-0.058577873
63	0x3e3d12f2	0.18464258
64	0xbdec03c9	-0.115241595
65	0x3e501b4d	0.20322914
66	0x3ceef258	0.029168293
67	0x3e136b47	0.14396392
68	0xbb81b868	-0.0039587505
69	0xbe132496	-0.14369425
70	0x3db079d4	0.08616987
71	0x3e73c4f7	0.23805605
72	0x3e939edd	0.2883214
73	0x3dd12504	0.10212138
74	0x3c31ef68	0.010860302
75	0x3e967ca3	0.29391965
76	0xbe284a15	-0.1643451
77	0x3de995b7	0.11405509
78	0x3e11c660	0.1423583
79	0x3e309d27	0.17247449
80	0xbb04f47c	-0.0020287326
81	0xbe124de1	-0.14287521
82	0x3e1b7d3c	0.15184492
83	0xbebca06a	-0.36841136
84	0x3d4f3ac4	0.050593153
85	0xbe00586f	-0.12533735
86	0xbe603168	-0.21893847
87	0x3e2696ca	0.16268459
88	0x3d00eba5	0.031474728
89	0xbe4a0957	-0.19730125
90	0x3d980f00	0.07424736
91	0x3d876137	0.06610339
92	0x3dba3be2	0.09093453
93	0xbe0cd7ee	-0.13754246
94	0xbbbc8c9d	-0.005754067
95	0xbddff6da	-0.10935755
96	0xbd71ed83	-0.0590644
97	0xbd989981	-0.074511535
98	0xbe5739a8	-0.21018088
99	0x3e1e117f	0.15436362
100	0xbe1f68a9	-0.15567268
101	0xbe2abc2f	-0.16673349
102	0xbe4486de	-0.19192073
103	0x3c8e5358	0.017373726
104	0xbdc45274	-0.09586039
105	0xbd8fff38	-0.07031101
106	0xbd9710f0	-0.073762774
107	0xbd88eb86	-0.066855475
108	0xbd230470	-0.039799154
109	0xbe15bae6	-0.14622077
110	0xbe635ed4	-0.22204143
111	0xbe2f077a	-0.17092696
112	0x3dd2c08c	0.10290632
113	0xbe231f86	-0.15929994
114	0x3d795d98	0.060880274
115	0x3c325ec0	0.010886848
116	0xbe515521	-0.2044263
117	0x3e445aea	0.19175306
118	0xbe408f3c	-0.1880464
119	0xbe510c36	-0.20414814
120	0x3dd30a14	0.103046566
121	0x3d9ec2e1	0.07752014
122	0xbb8c6dca	-0.004285549
123	0x3e43b51b	0.19112055
124	0xbc4ff52f	-0.012692734
125	0x3e96306e	0.29333824
126	0x3e5e3a8f	0.21702026
127	0x3e34ad00	0.1764412
128	0xbd9f7a9e	-0.07787059
129	0xbe18c6cd	-0.14919586
130	0x3e0ac580	0.13551903
131	0x3d79add2	0.060956784
132	0x3e8ba74c	0.27276075
133	0xbe34378f	-0.17599319
134	0xbdd914a8	-0.10599643
135	0x3ed07942	0.40717512
136	0xbe39413c	-0.18091291
137	0x3e23da18	0.16001165
138	0x3e493750	0.19650006
139	0xbe19ef62	-0.15032724
140	0x3c37e71a	0.0112245325
141	0x3d1d84dd	0.038456786
142	0x3ce8f24d	0.02843585
143	0xbe28ab3a	-0.16471568
144	0x3e27bce6	0.16380653
145	0xbe49dbaf	-0.19712709
146	0xbe1f4011	-0.15551783
147	0x3dffab2f	0.124838226
148	0x3d466379	0.04843471
149	0x3d9e8d23	0.077417634
150	0xbdb79d30	-0.08965528
151	0x3e0ce063	0.13757472
152	0x39154719	0.00014236233
153	0xbde3f21f	-0.11130165
154	0xbe0c4385	-0.13697632
155	0xbdad9983	-0.08476546
156	0x3e753881	0.23947336
157	0x3d5e5f68	0.054290205
158	0xbe0544b7	-0.13014494
159	0xbd7e5e01	-0.062101368
160	0xbdb1445a	-0.08655615
161	0x3dbc15c9	0.09183843
162	0xbe3ce805	-0.18447883
163	0x3e036686	0.12832078
164	0xbe29683b	-0.16543667
165	0x3e3d27ef	0.18472265
166	0x3d9808a5	0.07423524
167	0xbc4fdd9d	-0.012687114
168	0xbe0d2077	-0.13781916
169	0x3d3ba54b	0.045811933
170	0xbe24306e	-0.160341
171	0x3dfbed4d	0.12301121
172	0x3dcbcba9	0.099509545
173	0x3e0b4601	0.13600923
174	0xbd220f74	-0.03956552
175	0x3e71e01d	0.23620649
176	0x3ddac5e7	0.10682278
177	0xbdde9de1	-0.10869957
178	0x3e230dd8	0.1592325
179	0x3e152268	0.14563906
180	0x3e9b0d11	0.30283406
181	0x3de6712c	0.112520546
182	0x3e709c3c	0.23497099
183	0x3ee61027	0.44934198
184	0xbe0b3013	-0.13592558
185	0x3de452a6	0.111485764
186	0x3e7048ab	0.2346522
187	0x3ce01809	0.02735521
188	0xbec193f9	-0.37808207
189	0xbd24a4b4	-0.040196136
190	0x3e799aa3	0.24375395
191	0xbdaedcbf	-0.08538198
192	0x3e5234fb	0.20528023
193	0xbe8281ab	-0.25489554
194	0xbca9e70f	-0.02074006
195	0x3e9d7ad3	0.3075777
196	0xbe487ddc	-0.19579262
197	0x3d36572c	0.044516727
198	0x3c8ad50f	0.016947297
199	0x3dc4194e	0.09575139
200	0x3e837a0f	0.2567906
201	0x3d82ad79	0.063807435
202	0x3d0a74e8	0.033802897
203	0x3e9f2af9	0.31087473
204	0xbdfb5ba9	-0.12273342
205	0x3d7354e9	0.05940715
206	0x3ddfc06d	0.10925374
207	0x3e3a9429	0.18220581
208	0xbdec06a7	-0.11524706
209	0xbe1b6138	-0.15173805
210	0x3dfabe7b	0.122433625
211	0x3e5a57ed	0.21322604
212	0x3e92166f	0.2853274
213	0x3dbf5764	0.0934284
214	0xbe538343	-0.20655541
215	0x3f0f8074	0.5605538
216	0x3e00a560	0.12563086
217	0x3d8a9313	0.067663334
218	0x3d83901f	0.06423973
219	0xbcf49a4d	-0.029858733
220	0xbdec65de	-0.11542867
221	0xbe1aba8f	-0.15110229
222	0x3e08118c	0.13287944
223	0xbe5aa744	-0.2135287
224	0x3dd891c2	0.10574676
225	0x3da1d586	0.079020545
226	0x3cce50ce	0.025185015
227	0xbd9a4f2e	-0.075346336
228	0x3e298d77	0.16557871
229	0x3e751601	0.23934175
230	0xbc6a612e	-0.014305396
231	0xbe012bd2	-0.12614372
232	0x3db70e13	0.08938231
233	0x3e6bb534	0.23018342
234	0xbd805cfd	-0.06267736
235	0xb631b000	-2.64775e-06
236	0xbdfdebd0	-0.12398493
237	0xbdde9333	-0.1086792
238	0x3d84d1a2	0.06485297
239	0x3caacd80	0.020849943
240	0x3d310bfd	0.043224324
241	0xbe1b97d9	-0.15194644
242	0xbe0cc4c6	-0.13746938
243	0x3ec3354e	0.38126606
244	0xbe2bf23a	-0.16791621
245	0xbd315aca	-0.043299474
246	0x3d15630c	0.03647141
247	0x3e034d1e	0.12822387
248	0xbe85869c	-0.2607926
249	0xbe809667	-0.25114748
250	0x3da7ffa9	0.0820306
251	0x3e3f7e1f	0.18700455
252	0x3e39aa89	0.1813146
253	0xbd8b11e6	-0.06790523
254	0xbe5c18e7	-0.21493874
255	0x3edde337	0.43337414

linear2.bias f4 [15]
0	0x39571a9d	0.00020513912
1	0x3d01f4f4	0.031727746
2	0x3dba68d6	0.09102027
3	0x3de0e53d	0.10981224
4	0x3d9e52f5	0.077306665
5	0xbe0941ec	-0.13404053
6	0x3db1d926	0.08683996
7	0x3e4f8bdf	0.202682
8	0xbb755238	-0.003743304
9	0x3e89cb0a	0.2691272
10	0x3d01e48e	0.031712107
11	0xbdf85305	-0.1212521
12	0x3e0a89dd	0.13529153
13	0xbde96b33	-0.113974
14	0x3d22e7ad	0.039771724

linear3.weight f4 [1, 15]
0	0x3dbaef4e	0.09127675
1	0xbbdc57f3	-0.0067243516
2	0x3dd2fc1c	0.10301992
3	0xbe574cb1	-0.21025349
4	0x3d9218f7	0.07133668
5	0xbe45b28a	-0.19306388
6	0xbe96aff1	-0.29431108
7	0x3dcd3ced	0.10021386
8	0xbd181653	-0.037130665
9	0xbe97e4b5	-0.29666677
10	0xbe092ed1	-0.13396765
11	0x3df76a57	0.120808296
12	0xbe932c0d	-0.28744546
13	0xbe3b6f8c	-0.1830427
14	0xbdfced2a	-0.12349923
